moor/fight_detector.tflite (tflite, 33784 bytes, 6 tensors)

arith.constant3 f4 [1, 16]
00000000: b25b cfbe 8cea 713e 16c7 443d acd5 e73e
00000010: 04a3 1a3e 94b7 b03e 86e9 803e 3ea7 f73e
00000020: bc3d 8a3c 4c4c ea3e bc3a 023c b367 bdbe
00000030: 50dd ea3d 80c2 a53e 6071 c53e ab89 93be
-0.40499645 0.23624629 0.048041426 0.45280206 0.15101248 0.3451506 0.25178164 0.48369783
0.01687514 0.45761335 0.007948574 -0.3699318 0.11467993 0.32374954 0.3856306 -0.2881597

arith.constant4 f4 [16, 32]
00000000: 5d15 4dbc 9256 f33d f08a a43e 8914 433e
00000010: bfa4 c83d 4e2e a23e bd85 48bd 3c56 203d
00000020: 6550 92bc a498 90be 7385 a13e 9436 5abe
00000030: 2307 85be c879 a33e 1faf 0cbd fdf8 363d
00000040: 5b39 9dbe 6032 ad3d 0cb2 91bc 209a 0fbe
00000050: 32be 6bbe 5c2d d03d d7a2 a2be 7890 9f3e
00000060: 7cb7 90bd 09ae 423e 6900 56be f535 9dbe
00000070: 88c2 56be 9515 4a3e 5498 4a3e 1302 95be
00000080: de21 4a3e 661c 22be 7cbd f3bd 0c20 b93e
00000090: a89d b0bd fdb8 8e3e 66f6 a53e fe88 103c
000000a0: 6c4c 123e 7bd9 a3be e11b 523e 65b2 8e3e
000000b0: 7428 8f3e 9abe ccbd 4a93 983e e9e5 9bbd
000000c0: 5d71 b0be 0c73 b3be 32dd 6f3d 293a 07be
000000d0: cae4 adbe 5099 95be d3d6 b0be 7af9 4fbe
000000e0: 4174 573e fd3c b03d e6fc 9a3e 2721 9dbe
000000f0: 5493 653e 8a51 5abe b463 1b3e def9 4fbe
00000100: eaa4 39be 7183 61be 3550 993e 0224 6dbc
00000110: 0926 4b3e 46f6 1dbe da38 7b3e 3959 413d
00000120: 42a3 dcbd 23d8 dcbd 9452 343e e5e6 98be
00000130: b65b c1bd 26bd 223e 8b06 ea3d 938d 84be
00000140: c019 40be b902 9ebc 9c8f 903e ac7d 04be
00000150: f1c8 833c 9520 023e 1e17 3c3b bc8b 84be
00000160: 0cfb 1ebe 7913 c23c 95d5 b33e f9df a93d
00000170: 093a 903e 70ca 59be 9558 48bc 2323 953e
00000180: 23f5 d3bd 5190 3b3d 2fd7 8b3e 8109 92be
00000190: 0092 023e f619 3cbe 5407 aabb 0d4c 68be
000001a0: a73a b6bd cea0 c5bd abb6 c53b ea3a 8bbe
000001b0: 7876 053e d447 a9be ea8c 39bd 7956 a1be
000001c0: 6059 613e 7f98 2dbe b0af a6be 0c86 07bd
000001d0: 2d56 0a3d 5833 18be 2639 8a3e 6c83 e83d
000001e0: 3be0 5fbe 36f5 0c3e f90c 7e3e 875f 943e
000001f0: 971d 41be a775 7e3d 282a 423e c15c 07bd
00000200: 325d 86be f648 ebbd c0c7 8fbe 3637 883e
00000210: 5456 4d3d a155 353d 0b92 b83d fd18 25be
00000220: 7a89 ab3c 44a6 503e 0615 78be 66a7 5abd
00000230: 087a 8d3e 72fa 493e b346 a23e dade 6d3e
00000240: aa7b ad3d 600c 8cbe ced3 4cbe 1886 c53d
00000250: 05cc 853d 2d8e fb3d 06df 4d3e 01e1 233e
00000260: 3821 783d 3977 90be c783 a53e f7c1 893d
00000270: ef3b 2a3e f53a 78be 9fce 483e 2866 c7bd
00000280: be49 e73d cd79 93bc 3555 703b d946 b5be
00000290: 3aa5 93be 6a3f d7bc 06ca 61bc e2c7 4f3e
000002a0: d0d8 843e a449 e0bc 7038 42bc 5c6c 8cbe
000002b0: 84ab 76be aedd 89be 005d 79be 0077 e9bd
000002c0: cdd8 e2bd 2a79 863b f29b a43e 2d4a 853e
000002d0: 231d 0e3d 392e 8ebe cbd8 7ebe aa1d a6be
000002e0: c0dd 19be dc7f 8ebe 690e 1ebe a002 08bd
000002f0: 12e7 71be 5423 6bbc 22ac 6ebc e8bb 463e
00000300: eea3 873e f8e0 ee3d 1514 9e3e e8d7 4e3e
00000310: 91ec 83bd 35fb 01bd 68c4 5fbe 56b9 abbe
00000320: 0c79 3cbd dc7e 16bc 11ee 8e3e ec3a 08be
00000330: ec90 143e afb9 a33e 1314 c0bd d356 743d
00000340: 80ce 8d3e 7d45 5fbb 651b 0b3d ba14 68be
00000350: 83f5 853e a916 5c3e a142 15be f465 a03e
00000360: 6827 1f3d 2bcd 7cbe 637b a03d 558c 9cbd
00000370: e5b5 2cbc 8857 f23d ca48 d33d 57b9 1a3e
00000380: e85c 6dbe 3397 64be 821c a0be 84e6 893c
00000390: 6ab1 5d3e 5fa2 06be d1e5 88be 6435 89be
000003a0: 2599 1c3e b6df 40bd c748 613e bb0a b4bd
000003b0: af66 693e 4d66 a13e de50 433e 4e44 f13c
000003c0: 1670 573e 1cad 8f3b a9ad c6bd 10c1 5c3e
000003d0: bbb6 79be af90 6c3d 8019 903e 24e3 883d
000003e0: a82c ca3d d6c2 0ebe 774f 2fbe 90bc 993d
000003f0: 02e7 aabe 5c1e b33e 4ae0 50bd 4089 65bd
-0.0125173 0.11881746 0.3213725 0.19050802 0.09797048 0.31675953 -0.048955668 0.03914474
-0.0178606 -0.28241456 0.31547126 -0.21309882 -0.25982007 0.3192885 -0.034346696 0.044671047
-0.3070782 0.08456874 -0.017785095 -0.14023638 -0.23021773 0.101649016 -0.31764862 0.31164908
-0.07066247 0.19011702 -0.20898594 -0.30705228 -0.20972645 0.19734795 0.19784671 -0.29103145
0.19739482 -0.15831146 -0.11901376 0.36157262 -0.086238205 0.2787551 0.3241455 0.008821724
0.14286965 -0.32001862 0.20518447 0.2787048 0.2796055 -0.09997292 0.29799873 -0.07612211
-0.3446149 -0.3504871 0.058560558 -0.1320578 -0.33963615 -0.2921853 -0.34538898 -0.20310012
0.21040441 0.086053826 0.3027107 -0.30689356 0.22419482 -0.21320167 0.15174752 -0.2031016
-0.18129316 -0.22022797 0.29944006 -0.014473917 0.19838728 -0.15425977 0.24533406 0.04720423
-0.107733265 -0.10783412 0.17609626 -0.2986366 -0.094413206 0.15892467 0.11427029 -0.25889263
-0.18759823 -0.019288408 0.28234565 -0.12938565 0.016087027 0.12707742 0.0028700302 -0.2588786
-0.15525454 0.023690926 0.35123888 0.082946725 0.28169277 -0.2126863 -0.012228151 0.2912837
-0.103494905 0.045791928 0.2731261 -0.28522876 0.12751007 -0.18369278 -0.005188862 -0.22685261
-0.08897906 -0.09649812 0.0060337386 -0.27193385 0.13033473 -0.33062613 -0.0453004 -0.31511286
0.2200675 -0.16952704 -0.32555914 -0.03308682 0.03377359 -0.14863336 0.26996726 0.11353192
-0.21862881 0.13765416 0.24809636 0.28979132 -0.18858944 0.06212392 0.18961394 -0.03304744
-0.26242977 -0.114885256 -0.28082085 0.26604623 0.050131157 0.044271115 0.090122305 -0.16122814
0.020939577 0.20375925 -0.2422677 -0.0533823 0.27632165 0.19724444 0.31694564 0.23229542
0.08470853 -0.2735319 -0.20002672 0.09644717 0.06533054 0.12282977 0.20104608 0.16003801
0.060578555 -0.2821596 0.323271 0.06726449 0.16624425 -0.2424124 0.1961007 -0.09736282
0.11293362 -0.018002415 0.003667188 -0.35405615 -0.28836995 -0.026275355 -0.013781076 0.20291093
0.25946665 -0.027378865 -0.011854276 -0.27426422 -0.24088866 -0.2692694 -0.24351883 -0.113996506
-0.11076508 0.0041037994 0.32150227 0.26033154 0.034695756 -0.2776964 -0.24887387 -0.32444507
-0.15025997 -0.27831924 -0.15435185 -0.03320563 -0.23623303 -0.014351685 -0.014567407 0.19407618
0.26492256 0.11664003 0.30874696 0.20199549 -0.06441606 -0.03173371 -0.21852267 -0.33539838
-0.046013877 -0.009185519 0.27916005 -0.13303727 0.14508408 0.31977603 -0.09378829 0.059653115
0.2769661 -0.0034068518 0.033961672 -0.22664157 0.26163873 0.21493019 -0.14576198 0.31327784
0.03885594 -0.2468764 0.07836034 -0.07643954 -0.010541414 0.118331015 0.10316618 0.15109764
-0.23179972 -0.22323303 -0.3127175 0.016833551 0.2164971 -0.13147877 -0.26737836 -0.26798546
0.15292795 -0.047088347 0.22000419 -0.08791109 0.22793077 0.31523362 0.19073817 0.029451516
0.21038851 0.00438465 -0.09701092 0.21558022 -0.24386112 0.05775517 0.28144455 0.06683949
0.09871799 -0.13941512 -0.17120157 0.075066686 -0.3337937 0.349841 -0.05099515 -0.056039095

arith.constant5 f4 [16]
00000000: 922e ed3b 0b54 b63b 578f 783c 66d6 17bb
00000010: b8cd 2a3c b8a5 63bc fbf7 c8bb 6845 80bc
00000020: 00c7 a9bb 84f5 0ebc dc9d 16bc ae7f 5e3c
00000030: 0000 0000 3a94 60ba 7635 1ebc 1671 ad3b
0.0072382176 0.005564218 0.015170894 -0.0023168563 0.010425024 -0.013894491 -0.006133077 -0.015658095
-0.0051811934 -0.008725528 -0.00919291 0.013580246 0.0 -0.00085670094 -0.009656301 0.005293022

arith.constant19 f4 [128]
00000000: f80c 46bc 125b 553c 797f 6ebc e352 41bb
00000010: b8de 333c 24a7 d0bb f2e1 4fbc f9f7 98ba
00000020: 0e7e 693c 2652 a73b 596f 07bc 4ed9 0dbb
00000030: f493 07ba 7ff7 c03b f877 57ba 890e 7f3b
00000040: 96c4 6dbc 13f5 323c 7e56 ecbb 68bd 1a3b
00000050: 8e95 1f3b 4d4f 1dbb b689 b63b 3f3c 44bb
00000060: 231e 233c f346 1a3c 440b 983c b25b ddbb
00000070: c20a 38bc 58d4 d73b 9ecd 68bb 7148 963c
00000080: d2db 7c3f 28ac 813f 0264 7c3f de3c 803f
00000090: ae6e 813f 821c 7e3f 11da 7c3f f1db 7f3f
000000a0: 21da 813f 3602 813f aee6 7d3f d84b 7f3f
000000b0: e796 7e3f 3188 803f 8308 803f 866d 803f
000000c0: 8984 7c3f f56d 813f 650f 7e3f 4f3b 803f
000000d0: dd1a 803f cc01 7f3f 9d1a 813f f013 7f3f
000000e0: 5b79 813f bbf9 803f d758 823f c414 7e3f
000000f0: bf20 7d3f 08f1 803f b156 7f3f 9939 823f
00000100: 1e3d 0a3c 4966 d63a a2a1 663c fa1b e7ba
00000110: 2609 293c 981e 393c 67b3 a73b 5d4b b339
00000120: 0914 59bc 229c 07bc 81ff ecbb 9460 863b
00000130: 904e 31bc 55fa 043c 9e86 9c3a 39e4 5fbb
00000140: 3e71 8cbc 938a 25bb 5b03 b43b 2f76 45bb
00000150: 803c cabb cb6d e03a 78cb c0bb 9c90 e8b9
00000160: d755 c7bb 838a b5bb 8541 97bb 6a95 79bc
00000170: fdfe 633c 0eff c8bb 7874 d2ba 399f e6bb
00000180: ecd3 64bc 6771 823c b2db 3dbc 89bb 553b
00000190: f10e 83ba 4cc3 f0bb 2b3b 44bc 5b2d 27b9
000001a0: 21c7 333c 2a88 c53b bf92 02bc 5a77 b1bb
000001b0: 56e5 4fbb ce2e 0ebb f4ab 50ba 5e2d 623b
000001c0: 5628 e0bb 7859 433c 9ed8 e3bb 62a2 a63b
000001d0: ae4d 80bb c283 b4bb 7477 503c e520 87bb
000001e0: 514b 383c 085f 9c3c 6971 a43c 6587 dbbb
000001f0: 28f3 39bc 87e5 093c e8b2 04bb d6d9 983c
-0.012088053 0.013022201 -0.014556759 -0.0029498867 0.010978393 -0.006367581 -0.012688147 -0.0011670581
0.014251245 0.0051062284 -0.008266293 -0.0021644416 -0.0005171888 0.005888879 -0.0008219476 0.0038918576
-0.014512202 0.010922688 -0.007212459 0.002361143 0.0024350616 -0.0024003566 0.0055706156 -0.0029943136
0.009955916 0.00941633 0.01856006 -0.0067553157 -0.011233034 0.0065865926 -0.0035522948 0.01834509
0.9877292 1.0130663 0.985901 1.0018575 1.0111902 0.9926225 0.9877024 0.9994498
1.0144693 1.00788 0.99180114 0.99725103 0.9944901 1.0041562 1.0002598 1.0033424
0.9863973 1.0111681 0.9924224 1.00181 1.0008198 0.99612117 1.0086247 0.996398
1.011516 1.0076212 1.0183362 0.99250436 0.9887809 1.0073557 0.99741656 1.0173827
0.008437423 0.0016357388 0.014076622 -0.0017632239 0.010317123 0.011298798 0.005117822 0.0003419769
-0.013249406 -0.008276971 -0.007232607 0.0041008685 -0.010821953 0.008116324 0.0011941975 -0.003416313
-0.017143842 -0.0025259599 0.005493564 -0.0030130257 -0.006171763 0.0017122565 -0.0058836304 -0.0004435823
-0.006083231 -0.0055401935 -0.004615965 -0.015233377 0.013915774 -0.0061339205 -0.0016056439 -0.007038024
-0.013966542 0.015923215 -0.011588024 0.0032613 -0.000999896 -0.0073475 -0.011976997 -0.00015943257
0.010972769 0.006028195 -0.007969557 -0.005415839 -0.0031722388 -0.0021695378 -0.00079601933 0.0034511904
-0.006840746 0.0119231865 -0.006953313 0.0050852755 -0.00391551 -0.005508871 0.012723792 -0.0041237944
0.011248426 0.019088283 0.02007361 -0.00669949 -0.011349477 0.00841654 -0.0020248238 0.01865856

tfl.pseudo_qconst i1 [128, 99]
00000000: 28fd 93d7 045a 1d59 5720 dedb 4333 67e5
00000010: fbb8 a72b 7f53 49a0 f3b0 56cc 14ba c7aa
00000020: cd13 ab46 38ed 18b6 b213 2104 9c0e 1fca
00000030: d5a7 d315 3fe9 996e 27d8 04a2 34e3 e7f2
00000040: 55c9 16f2 bc6a 9fc4 6419 701e e793 61ce
00000050: d5de e21c d92c 0af8 db45 dd11 e53a 2b33
00000060: 201c aaed c3ec e2f3 070f b7ab d594 8fcc
00000070: baba fcc1 5ba9 69e2 08f4 5bcb dcfe 671d
00000080: 560f a8f9 bad8 3faa f564 d0e0 aca2 d4d6
00000090: 0413 6b45 d943 a2a9 a45f e5b4 9fae f263
000000a0: 2107 fb1d 3681 021b 686a 3cde 4031 39b2
000000b0: c6d7 c590 00b8 c209 3743 c6e5 e524 de66
000000c0: baf4 143c 3833 a770 eb20 45c6 4f6f 4f30
000000d0: c9de 033a 527e 7a9d f0f0 17be b5aa 6422
000000e0: fe58 53c2 5e4d f709 7f72 735b 9345 2dbc
000000f0: 1b78 7b41 6dc6 259b d908 24c4 6ada dcd8
40 -3 -109 -41 4 90 29 89
87 32 -34 -37 67 51 103 -27
-5 -72 -89 43 127 83 73 -96
-13 -80 86 -52 20 -70 -57 -86
-51 19 -85 70 56 -19 24 -74
-78 19 33 4 -100 14 31 -54
-43 -89 -45 21 63 -23 -103 110
39 -40 4 -94 52 -29 -25 -14
85 -55 22 -14 -68 106 -97 -60
100 25 112 30 -25 -109 97 -50
-43 -34 -30 28 -39 44 10 -8
-37 69 -35 17 -27 58 43 51
32 28 -86 -19 -61 -20 -30 -13
7 15 -73 -85 -43 -108 -113 -52
-70 -70 -4 -63 91 -87 105 -30
8 -12 91 -53 -36 -2 103 29
86 15 -88 -7 -70 -40 63 -86
-11 100 -48 -32 -84 -94 -44 -42
4 19 107 69 -39 67 -94 -87
-92 95 -27 -76 -97 -82 -14 99
33 7 -5 29 54 -127 2 27
104 106 60 -34 64 49 57 -78
-58 -41 -59 -112 0 -72 -62 9
55 67 -58 -27 -27 36 -34 102
-70 -12 20 60 56 51 -89 112
-21 32 69 -58 79 111 79 48
-55 -34 3 58 82 126 122 -99
-16 -16 23 -66 -75 -86 100 34
-2 88 83 -62 94 77 -9 9
127 114 115 91 -109 69 45 -68
27 120 123 65 109 -58 37 -101
-39 8 36 -60 106 -38 -36 -40

tfl.pseudo_qconst1 i1 [128, 32]
00000000: 15bf 8112 17da 1a56 542e ee01 e72e a90f
00000010: c91e e1dd a02a e40a 2310 a2ff 3c38 282a
00000020: 131a db08 e7be 1511 e315 0330 fbec fd06
00000030: e7dc fe08 e2ff b57f c7cf 2ae1 c5e7 06ac
00000040: fc81 dfce eaf9 ffff 001f 1d03 c5f3 f620
00000050: 01f9 0af9 23dd 1aed d2c0 0926 2f04 0615
00000060: 3ac9 7fda da1b ef4e 605c bfbd cb00 d397
00000070: 06ce e028 c1df 0bb8 c946 5bb5 04b0 2d05
00000080: b77f 1225 d0d1 0f73 d478 fa97 f66c 5cac
00000090: 1964 026f caf3 059c 6318 1d4b ef3e 2c25
000000a0: bd37 1dca 1232 19ca 041e 08b9 b92e f2da
000000b0: ae26 ef39 f038 7d79 e2d3 81fe 68f4 b2c7
000000c0: d232 51ad 1d1b 253b fca9 2cc2 01a6 202e
000000d0: cf12 dbe5 fab9 9f20 ff14 c9c1 577f 7be1
000000e0: 3108 15b1 e22a e5cc fce8 2781 2c52 fdc9
000000f0: e44c 2514 a8fb 4eef adf0 4e9c 0f04 1bbc
21 -65 -127 18 23 -38 26 86
84 46 -18 1 -25 46 -87 15
-55 30 -31 -35 -96 42 -28 10
35 16 -94 -1 60 56 40 42
19 26 -37 8 -25 -66 21 17
-29 21 3 48 -5 -20 -3 6
-25 -36 -2 8 -30 -1 -75 127
-57 -49 42 -31 -59 -25 6 -84
-4 -127 -33 -50 -22 -7 -1 -1
0 31 29 3 -59 -13 -10 32
1 -7 10 -7 35 -35 26 -19
-46 -64 9 38 47 4 6 21
58 -55 127 -38 -38 27 -17 78
96 92 -65 -67 -53 0 -45 -105
6 -50 -32 40 -63 -33 11 -72
-55 70 91 -75 4 -80 45 5
-73 127 18 37 -48 -47 15 115
-44 120 -6 -105 -10 108 92 -84
25 100 2 111 -54 -13 5 -100
99 24 29 75 -17 62 44 37
-67 55 29 -54 18 50 25 -54
4 30 8 -71 -71 46 -14 -38
-82 38 -17 57 -16 56 125 121
-30 -45 -127 -2 104 -12 -78 -57
-46 50 81 -83 29 27 37 59
-4 -87 44 -62 1 -90 32 46
-49 18 -37 -27 -6 -71 -97 32
-1 20 -55 -63 87 127 123 -31
49 8 21 -79 -30 42 -27 -52
-4 -24 39 -127 44 82 -3 -55
-28 76 37 20 -88 -5 78 -17
-83 -16 78 -100 15 4 27 -68
